checkpoints/mnist_25_epoch_93.97.ckpt (torch_old, 390621 bytes, 9 tensors)

module.fc1._weight_mask f4 [40, 784]
0	0x3f800000	1.0
1	0x3f800000	1.0
2	0x3f800000	1.0
3	0x3f800000	1.0
4	0x3f800000	1.0
5	0x3f800000	1.0
6	0x3f800000	1.0
7	0x3f800000	1.0
8	0x3f800000	1.0
9	0x3f800000	1.0
10	0x3f800000	1.0
11	0x3f800000	1.0
12	0x3f800000	1.0
13	0x3f800000	1.0
14	0x3f800000	1.0
15	0x3f800000	1.0
16	0x3f800000	1.0
17	0x3f800000	1.0
18	0x3f800000	1.0
19	0x3f800000	1.0
20	0x3f800000	1.0
21	0x3f800000	1.0
22	0x3f800000	1.0
23	0x3f800000	1.0
24	0x3f800000	1.0
25	0x3f800000	1.0
26	0x3f800000	1.0
27	0x3f800000	1.0
28	0x3f800000	1.0
29	0x3f800000	1.0
30	0x3f800000	1.0
31	0x3f800000	1.0
32	0x3f800000	1.0
33	0x3f800000	1.0
34	0x3f800000	1.0
35	0x3f800000	1.0
36	0x3f800000	1.0
37	0x3f800000	1.0
38	0x3f800000	1.0
39	0x3f800000	1.0
40	0x3f800000	1.0
41	0x3f800000	1.0
42	0x3f800000	1.0
43	0x3f800000	1.0
44	0x3f800000	1.0
45	0x3f800000	1.0
46	0x3f800000	1.0
47	0x3f800000	1.0
48	0x3f800000	1.0
49	0x3f800000	1.0
50	0x3f800000	1.0
51	0x3f800000	1.0
52	0x3f800000	1.0
53	0x3f800000	1.0
54	0x3f800000	1.0
55	0x3f800000	1.0
56	0x3f800000	1.0
57	0x3f800000	1.0
58	0x3f800000	1.0
59	0x3f800000	1.0
60	0x3f800000	1.0
61	0x3f800000	1.0
62	0x3f800000	1.0
63	0x3f800000	1.0
64	0x3f800000	1.0
65	0x3f800000	1.0
66	0x3f800000	1.0
67	0x3f800000	1.0
68	0x3f800000	1.0
69	0x3f800000	1.0
70	0x3f800000	1.0
71	0x3f800000	1.0
72	0x3f800000	1.0
73	0x3f800000	1.0
74	0x3f800000	1.0
75	0x3f800000	1.0
76	0x3f800000	1.0
77	0x3f800000	1.0
78	0x3f800000	1.0
79	0x3f800000	1.0
80	0x3f800000	1.0
81	0x3f800000	1.0
82	0x3f800000	1.0
83	0x3f800000	1.0
84	0x3f800000	1.0
85	0x3f800000	1.0
86	0x3f800000	1.0
87	0x3f800000	1.0
88	0x3f800000	1.0
89	0x3f800000	1.0
90	0x3f800000	1.0
91	0x3f800000	1.0
92	0x3f800000	1.0
93	0x3f800000	1.0
94	0x3f800000	1.0
95	0x3f800000	1.0
96	0x3f800000	1.0
97	0x3f800000	1.0
98	0x3f800000	1.0
99	0x3f800000	1.0
100	0x3f800000	1.0
101	0x3f800000	1.0
102	0x3f800000	1.0
103	0x3f800000	1.0
104	0x3f800000	1.0
105	0x3f800000	1.0
106	0x3f800000	1.0
107	0x3f800000	1.0
108	0x3f800000	1.0
109	0x3f800000	1.0
110	0x3f800000	1.0
111	0x3f800000	1.0
112	0x3f800000	1.0
113	0x3f800000	1.0
114	0x3f800000	1.0
115	0x3f800000	1.0
116	0x3f800000	1.0
117	0x3f800000	1.0
118	0x3f800000	1.0
119	0x3f800000	1.0
120	0x3f800000	1.0
121	0x3f800000	1.0
122	0x3f800000	1.0
123	0x3f800000	1.0
124	0x3f800000	1.0
125	0x3f800000	1.0
126	0x3f800000	1.0
127	0x3f800000	1.0
128	0x3f800000	1.0
129	0x3f800000	1.0
130	0x3f800000	1.0
131	0x3f800000	1.0
132	0x3f800000	1.0
133	0x3f800000	1.0
134	0x3f800000	1.0
135	0x3f800000	1.0
136	0x3f800000	1.0
137	0x3f800000	1.0
138	0x3f800000	1.0
139	0x3f800000	1.0
140	0x3f800000	1.0
141	0x3f800000	1.0
142	0x3f800000	1.0
143	0x3f800000	1.0
144	0x3f800000	1.0
145	0x3f800000	1.0
146	0x3f800000	1.0
147	0x3f800000	1.0
148	0x3f800000	1.0
149	0x3f800000	1.0
150	0x3f800000	1.0
151	0x3f800000	1.0
152	0x3f800000	1.0
153	0x3f800000	1.0
154	0x3f800000	1.0
155	0x3f800000	1.0
156	0x3f800000	1.0
157	0x3f800000	1.0
158	0x3f800000	1.0
159	0x3f800000	1.0
160	0x3f800000	1.0
161	0x3f800000	1.0
162	0x3f800000	1.0
163	0x3f800000	1.0
164	0x3f800000	1.0
165	0x3f800000	1.0
166	0x3f800000	1.0
167	0x3f800000	1.0
168	0x3f800000	1.0
169	0x3f800000	1.0
170	0x3f800000	1.0
171	0x3f800000	1.0
172	0x3f800000	1.0
173	0x3f800000	1.0
174	0x3f800000	1.0
175	0x3f800000	1.0
176	0x3f800000	1.0
177	0x3f800000	1.0
178	0x3f800000	1.0
179	0x3f800000	1.0
180	0x3f800000	1.0
181	0x3f800000	1.0
182	0x3f800000	1.0
183	0x3f800000	1.0
184	0x3f800000	1.0
185	0x3f800000	1.0
186	0x3f800000	1.0
187	0x3f800000	1.0
188	0x3f800000	1.0
189	0x3f800000	1.0
190	0x3f800000	1.0
191	0x3f800000	1.0
192	0x3f800000	1.0
193	0x3f800000	1.0
194	0x3f800000	1.0
195	0x3f800000	1.0
196	0x3f800000	1.0
197	0x3f800000	1.0
198	0x3f800000	1.0
199	0x3f800000	1.0
200	0x3f800000	1.0
201	0x3f800000	1.0
202	0x3f800000	1.0
203	0x3f800000	1.0
204	0x3f800000	1.0
205	0x3f800000	1.0
206	0x3f800000	1.0
207	0x3f800000	1.0
208	0x3f800000	1.0
209	0x3f800000	1.0
210	0x3f800000	1.0
211	0x3f800000	1.0
212	0x3f800000	1.0
213	0x3f800000	1.0
214	0x3f800000	1.0
215	0x3f800000	1.0
216	0x3f800000	1.0
217	0x3f800000	1.0
218	0x3f800000	1.0
219	0x3f800000	1.0
220	0x3f800000	1.0
221	0x3f800000	1.0
222	0x3f800000	1.0
223	0x3f800000	1.0
224	0x3f800000	1.0
225	0x3f800000	1.0
226	0x3f800000	1.0
227	0x3f800000	1.0
228	0x3f800000	1.0
229	0x3f800000	1.0
230	0x3f800000	1.0
231	0x3f800000	1.0
232	0x3f800000	1.0
233	0x3f800000	1.0
234	0x3f800000	1.0
235	0x3f800000	1.0
236	0x3f800000	1.0
237	0x3f800000	1.0
238	0x3f800000	1.0
239	0x3f800000	1.0
240	0x3f800000	1.0
241	0x3f800000	1.0
242	0x3f800000	1.0
243	0x3f800000	1.0
244	0x3f800000	1.0
245	0x3f800000	1.0
246	0x3f800000	1.0
247	0x3f800000	1.0
248	0x3f800000	1.0
249	0x3f800000	1.0
250	0x3f800000	1.0
251	0x3f800000	1.0
252	0x3f800000	1.0
253	0x3f800000	1.0
254	0x3f800000	1.0
255	0x3f800000	1.0

module.fc1._layer.weight f4 [40, 784]
0	0xb9613f9f	-0.00021481373
1	0x3c9d6129	0.019211369
2	0xbcf05e55	-0.029341856
3	0xbcd6e228	-0.026230887
4	0xbc608240	-0.013702929
5	0x3c1dc56f	0.009629591
6	0xba2bb69d	-0.0006550344
7	0x3ce8687d	0.028370136
8	0xbb4c441b	-0.0031168524
9	0x3c1bb27b	0.009503002
10	0xbc2ffa10	-0.010740772
11	0xbbe450f2	-0.0069676572
12	0xbd0b8e12	-0.034071036
13	0xbcc1333b	-0.023583999
14	0xbc6fe499	-0.014641904
15	0x3ab472ac	0.0013767085
16	0x3c683048	0.014171667
17	0x3caffb19	0.021482037
18	0xbcc5ea35	-0.02415953
19	0xbc7df21c	-0.015499618
20	0x3c55651c	0.013024595
21	0x3cf3610d	0.029709363
22	0xbbef1f79	-0.007297453
23	0x3cdb5db1	0.026778074
24	0xbbbae84e	-0.0057039624
25	0x3b7b1c61	0.0038316476
26	0x3d04ac65	0.03239097
27	0xbd077d5f	-0.033078548
28	0xbcb7c0e5	-0.022430846
29	0xbc1346de	-0.008989064
30	0xbc633a35	-0.013868858
31	0x3cfd3699	0.030909823
32	0xbcbd3521	-0.023096623
33	0xbc863fba	-0.016387809
34	0xbccbfa66	-0.024899673
35	0xbd08eba0	-0.033427835
36	0xbcac2062	-0.021011535
37	0x3cf95f37	0.03044091
38	0x3c80d8a1	0.015728297
39	0x3c8a96ca	0.016917605
40	0x3ad774e3	0.0016438033
41	0xbc9699de	-0.018383916
42	0x3bcd19f5	0.006259198
43	0xbd05c49b	-0.0326582
44	0xbcc544ec	-0.024080716
45	0xbc933a17	-0.017972035
46	0x3cb7a9c9	0.022419827
47	0x3caab94a	0.020840306
48	0xbc82bd21	-0.015959324
49	0xbaae7825	-0.0013310952
50	0x3cbbd383	0.022928005
51	0x3d11b0ab	0.035568874
52	0x3c691804	0.014226917
53	0x3b9fd1f5	0.0048773238
54	0x3cc498b3	0.023998594
55	0xbcabd5df	-0.020976005
56	0x3bdbcc6d	0.006707719
57	0xbce26695	-0.027636806
58	0xbcca59be	-0.024700996
59	0xbc96b528	-0.018396929
60	0x3c84a6bc	0.016192786
61	0x3c6c26f3	0.014413583
62	0xbcad2c6b	-0.021139344
63	0x3c2d733b	0.010586555
64	0x3c9d39ca	0.019192595
65	0xbbb76e80	-0.0055978894
66	0xba13c12b	-0.0005636389
67	0x3bcca3f8	0.0062451325
68	0x3ca32cdb	0.01991885
69	0x3cff98d7	0.03120081
70	0xbcee066c	-0.029055797
71	0xbc6f6a01	-0.014612676
72	0x3c43a083	0.011940124
73	0x3cd9ca8f	0.026585845
74	0x3cdb1aa4	0.026746102
75	0x3cd3fc27	0.025877072
76	0x3b8f205d	0.0043678717
77	0xbd0584bd	-0.032597292
78	0x3b1c0016	0.0023803762
79	0xbcba05a2	-0.022707764
80	0xbd075942	-0.033044107
81	0x3d03118b	0.031999152
82	0x3cdee411	0.02720836
83	0xbd11b57b	-0.035573464
84	0x3bdcc47b	0.0067372895
85	0xbbc36c6c	-0.0059638526
86	0xbbbee71d	-0.0058258907
87	0xbc858393	-0.016298091
88	0x3c61d64e	0.013784004
89	0xbcaf4fa8	-0.021400288
90	0x3c505ff1	0.012718187
91	0x3c9083f3	0.017641043
92	0x3cc6df0a	0.024276275
93	0x3c62603e	0.013816891
94	0xbd0c8dde	-0.034314983
95	0xbcaf1522	-0.021372382
96	0x3cada0b6	0.021194797
97	0x3c20235e	0.009774057
98	0xbcf079ca	-0.029354949
99	0xbcb2b636	-0.0218154
100	0x3cf222c0	0.029557586
101	0x3c6cc59a	0.014451409
102	0xbcd7125c	-0.026253872
103	0xbc9d4dfc	-0.019202225
104	0xbd25ff4e	-0.04052668
105	0xbb52131b	-0.0032054845
106	0xbce2ff1c	-0.027709536
107	0xbce51ec1	-0.027968766
108	0xbb198ee3	-0.0023431114
109	0x3bb8753b	0.0056292093
110	0xbc7223b9	-0.014779025
111	0x3cae0963	0.02124471
112	0xbcb19c1f	-0.02168089
113	0x3d04f2e1	0.03245819
114	0x3cc900ae	0.024536457
115	0xbcf68328	-0.030091837
116	0xbc166808	-0.009180076
117	0x3a8485b4	0.0010110647
118	0x3b9b4b36	0.0047391905
119	0x3bbe8cd7	0.0058151293
120	0x3c2676f3	0.010160196
121	0x3b362b51	0.0027796815
122	0xbc61fefd	-0.013793704
123	0x3ce53740	0.027980447
124	0xbc405d09	-0.011740931
125	0x3acd5dff	0.0015668272
126	0x3caa684e	0.02080169
127	0x3b90c78e	0.00441832
128	0x38395ac1	4.419196e-05
129	0xbcdf559b	-0.0272625
130	0xbc308868	-0.010774709
131	0x3aebe7f7	0.0017998208
132	0xbce1aba3	-0.027547663
133	0xbc2f715e	-0.010708181
134	0x3c4d3796	0.01252546
135	0xbc4a5b39	-0.012350851
136	0xba0a9b10	-0.00052873883
137	0xbb01b4d6	-0.0019791625
138	0x3c01e4d6	0.007928094
139	0x3cb9fd0c	0.02270367
140	0x3d0ac899	0.03388271
141	0x3cba3b05	0.02273322
142	0x3d0b012f	0.033936676
143	0xbb3ef475	-0.0029137407
144	0xbd083e0a	-0.03326229
145	0xbc9a884e	-0.018863823
146	0x3cac4a10	0.02103141
147	0xbb8b1b13	-0.004245171
148	0xbc9ad176	-0.018898707
149	0xbca62b05	-0.020284185
150	0xbcc81219	-0.024422692
151	0xbab6d1e9	-0.0013948056
152	0x3ceb2daa	0.028708298
153	0x3d3d7b0f	0.046259936
154	0x3d3ab5e4	0.04558362
155	0xbc4022f2	-0.011727082
156	0x3d3d7660	0.04625547
157	0xbbaac8de	-0.0052119335
158	0x3b715c0f	0.0036828553
159	0xbb962442	-0.004581959
160	0x3a7161da	0.00092080014
161	0xbc105c0e	-0.00881101
162	0xbd4027d0	-0.04691297
163	0xbd3c47ed	-0.04596703
164	0xbc29b6fe	-0.01035857
165	0x3b68bf72	0.00355145
166	0xbc82b43f	-0.015955089
167	0x3c5abc7e	0.013350604
168	0xbd037354	-0.032092407
169	0xbb1a8234	-0.0023576142
170	0x3d024e00	0.031812668
171	0xbc6aa59d	-0.014321712
172	0x3d021686	0.03175976
173	0x3c5d33aa	0.013501087
174	0xbcf0efda	-0.029411245
175	0x3ce9720e	0.028496768
176	0x3c4cb25c	0.012493696
177	0x3c2004f1	0.009766803
178	0x3d4f6722	0.050635464
179	0xbc1b56e4	-0.009481166
180	0x3c8abc68	0.016935542
181	0xbba2496b	-0.0049525998
182	0x3cf3cde9	0.029761272
183	0x3cf91497	0.030405326
184	0x3cfa80b6	0.030578952
185	0x3c9a1bc1	0.018812062
186	0xbc881166	-0.016609859
187	0xbb9a7490	-0.0047136024
188	0xbcb1cc97	-0.021704001
189	0x3cab6777	0.02092336
190	0x3cb59c74	0.02216933
191	0x3cbbe3a5	0.022935698
192	0xbcbcb5a5	-0.023035834
193	0x3bcc0539	0.0062262085
194	0xbccc3c92	-0.024931226
195	0xbca11c1a	-0.01966672
196	0xbcaa07d2	-0.020755682
197	0x3c4ab800	0.012372971
198	0xbca59683	-0.020213371
199	0x3ab0bd76	0.0013484198
200	0x3bcf9e89	0.0063360375
201	0x3d0a3e64	0.033750907
202	0xbbc2d8d9	-0.0059462604
203	0x3c196828	0.009363212
204	0x3ce70a94	0.028203286
205	0x3d80f40b	0.062965475
206	0x3c7f504f	0.015583112
207	0x3d26f241	0.040758375
208	0x3c790c4c	0.015200686
209	0x3b3b1716	0.0028547696
210	0xbcbddeda	-0.023177553
211	0xbc81179e	-0.015758332
212	0x3bd3e182	0.0064660916
213	0xbc263705	-0.010144954
214	0x3c283026	0.010265386
215	0x3c1cfa1e	0.009581117
216	0xbca88024	-0.020568915
217	0xbba099d3	-0.00490115
218	0x3d351b9b	0.04421578
219	0xbbf5b8fc	-0.0074988585
220	0x3c881cdf	0.01661533
221	0x3d26ca97	0.04072055
222	0x3c5b3e1d	0.013381508
223	0x3a75e8e7	0.00093807135
224	0xbcfd30c9	-0.030907052
225	0x3c949bc8	0.018140689
226	0xbcbdf34e	-0.023187306
227	0xbb8d373f	-0.0043095644
228	0x3b179a05	0.0023132574
229	0x3caf0c0b	0.021368047
230	0x3d3a03e3	0.045413863
231	0x3dbea2f8	0.093084276
232	0x3d8e2c6d	0.06942067
233	0x3da614be	0.08109425
234	0x3d5b4cfd	0.05354022
235	0xbb338283	-0.0027391023
236	0x3d3def5f	0.04637086
237	0x3b9363bb	0.004497973
238	0xbc2419ef	-0.010015949
239	0x3c2ab3e8	0.01041887
240	0x3cdef536	0.027216535
241	0x3d3ee95f	0.04660928
242	0x3c912322	0.017716948
243	0x3cd99275	0.026559094
244	0x3d02f8e6	0.03197565
245	0xbc81fda4	-0.015868016
246	0x3d75da27	0.0600225
247	0x3c508e0f	0.012729182
248	0x3cfa5cfd	0.030561918
249	0x3b18074f	0.0023197716
250	0xbc6e215f	-0.0145343235
251	0x3bc07765	0.005873608
252	0x3cf32b40	0.02968371
253	0xbc1ed833	-0.009695101
254	0xbc919b96	-0.017774384
255	0xbb44ae84	-0.0030011246

module.fc2._weight_mask f4 [20, 40]
0	0x3f800000	1.0
1	0x3f800000	1.0
2	0x3f800000	1.0
3	0x3f800000	1.0
4	0x3f800000	1.0
5	0x3f800000	1.0
6	0x3f800000	1.0
7	0x3f800000	1.0
8	0x3f800000	1.0
9	0x3f800000	1.0
10	0x3f800000	1.0
11	0x3f800000	1.0
12	0x3f800000	1.0
13	0x3f800000	1.0
14	0x3f800000	1.0
15	0x3f800000	1.0
16	0x3f800000	1.0
17	0x3f800000	1.0
18	0x3f800000	1.0
19	0x3f800000	1.0
20	0x3f800000	1.0
21	0x3f800000	1.0
22	0x3f800000	1.0
23	0x3f800000	1.0
24	0x3f800000	1.0
25	0x3f800000	1.0
26	0x3f800000	1.0
27	0x3f800000	1.0
28	0x3f800000	1.0
29	0x3f800000	1.0
30	0x3f800000	1.0
31	0x3f800000	1.0
32	0x3f800000	1.0
33	0x3f800000	1.0
34	0x3f800000	1.0
35	0x3f800000	1.0
36	0x3f800000	1.0
37	0x3f800000	1.0
38	0x3f800000	1.0
39	0x3f800000	1.0
40	0x3f800000	1.0
41	0x3f800000	1.0
42	0x3f800000	1.0
43	0x3f800000	1.0
44	0x3f800000	1.0
45	0x3f800000	1.0
46	0x3f800000	1.0
47	0x3f800000	1.0
48	0x3f800000	1.0
49	0x3f800000	1.0
50	0x3f800000	1.0
51	0x3f800000	1.0
52	0x3f800000	1.0
53	0x3f800000	1.0
54	0x3f800000	1.0
55	0x3f800000	1.0
56	0x3f800000	1.0
57	0x3f800000	1.0
58	0x3f800000	1.0
59	0x3f800000	1.0
60	0x3f800000	1.0
61	0x3f800000	1.0
62	0x3f800000	1.0
63	0x3f800000	1.0
64	0x3f800000	1.0
65	0x3f800000	1.0
66	0x3f800000	1.0
67	0x3f800000	1.0
68	0x3f800000	1.0
69	0x3f800000	1.0
70	0x3f800000	1.0
71	0x3f800000	1.0
72	0x3f800000	1.0
73	0x3f800000	1.0
74	0x3f800000	1.0
75	0x3f800000	1.0
76	0x3f800000	1.0
77	0x3f800000	1.0
78	0x3f800000	1.0
79	0x3f800000	1.0
80	0x3f800000	1.0
81	0x3f800000	1.0
82	0x3f800000	1.0
83	0x3f800000	1.0
84	0x3f800000	1.0
85	0x3f800000	1.0
86	0x3f800000	1.0
87	0x3f800000	1.0
88	0x3f800000	1.0
89	0x3f800000	1.0
90	0x3f800000	1.0
91	0x3f800000	1.0
92	0x3f800000	1.0
93	0x3f800000	1.0
94	0x3f800000	1.0
95	0x3f800000	1.0
96	0x3f800000	1.0
97	0x3f800000	1.0
98	0x3f800000	1.0
99	0x3f800000	1.0
100	0x3f800000	1.0
101	0x3f800000	1.0
102	0x3f800000	1.0
103	0x3f800000	1.0
104	0x3f800000	1.0
105	0x3f800000	1.0
106	0x3f800000	1.0
107	0x3f800000	1.0
108	0x3f800000	1.0
109	0x3f800000	1.0
110	0x3f800000	1.0
111	0x3f800000	1.0
112	0x3f800000	1.0
113	0x3f800000	1.0
114	0x3f800000	1.0
115	0x3f800000	1.0
116	0x3f800000	1.0
117	0x3f800000	1.0
118	0x3f800000	1.0
119	0x3f800000	1.0
120	0x3f800000	1.0
121	0x3f800000	1.0
122	0x3f800000	1.0
123	0x3f800000	1.0
124	0x3f800000	1.0
125	0x3f800000	1.0
126	0x3f800000	1.0
127	0x3f800000	1.0
128	0x3f800000	1.0
129	0x3f800000	1.0
130	0x3f800000	1.0
131	0x3f800000	1.0
132	0x3f800000	1.0
133	0x3f800000	1.0
134	0x3f800000	1.0
135	0x3f800000	1.0
136	0x3f800000	1.0
137	0x3f800000	1.0
138	0x3f800000	1.0
139	0x3f800000	1.0
140	0x3f800000	1.0
141	0x3f800000	1.0
142	0x3f800000	1.0
143	0x3f800000	1.0
144	0x3f800000	1.0
145	0x3f800000	1.0
146	0x3f800000	1.0
147	0x3f800000	1.0
148	0x3f800000	1.0
149	0x3f800000	1.0
150	0x3f800000	1.0
151	0x3f800000	1.0
152	0x3f800000	1.0
153	0x3f800000	1.0
154	0x3f800000	1.0
155	0x3f800000	1.0
156	0x3f800000	1.0
157	0x3f800000	1.0
158	0x3f800000	1.0
159	0x3f800000	1.0
160	0x3f800000	1.0
161	0x3f800000	1.0
162	0x3f800000	1.0
163	0x3f800000	1.0
164	0x3f800000	1.0
165	0x3f800000	1.0
166	0x3f800000	1.0
167	0x3f800000	1.0
168	0x3f800000	1.0
169	0x3f800000	1.0
170	0x3f800000	1.0
171	0x3f800000	1.0
172	0x3f800000	1.0
173	0x3f800000	1.0
174	0x3f800000	1.0
175	0x3f800000	1.0
176	0x3f800000	1.0
177	0x3f800000	1.0
178	0x3f800000	1.0
179	0x3f800000	1.0
180	0x3f800000	1.0
181	0x3f800000	1.0
182	0x3f800000	1.0
183	0x3f800000	1.0
184	0x3f800000	1.0
185	0x3f800000	1.0
186	0x3f800000	1.0
187	0x3f800000	1.0
188	0x3f800000	1.0
189	0x3f800000	1.0
190	0x3f800000	1.0
191	0x3f800000	1.0
192	0x3f800000	1.0
193	0x3f800000	1.0
194	0x3f800000	1.0
195	0x3f800000	1.0
196	0x3f800000	1.0
197	0x3f800000	1.0
198	0x3f800000	1.0
199	0x3f800000	1.0
200	0x3f800000	1.0
201	0x3f800000	1.0
202	0x3f800000	1.0
203	0x3f800000	1.0
204	0x3f800000	1.0
205	0x3f800000	1.0
206	0x3f800000	1.0
207	0x3f800000	1.0
208	0x3f800000	1.0
209	0x3f800000	1.0
210	0x3f800000	1.0
211	0x3f800000	1.0
212	0x3f800000	1.0
213	0x3f800000	1.0
214	0x3f800000	1.0
215	0x3f800000	1.0
216	0x3f800000	1.0
217	0x3f800000	1.0
218	0x3f800000	1.0
219	0x3f800000	1.0
220	0x3f800000	1.0
221	0x3f800000	1.0
222	0x3f800000	1.0
223	0x3f800000	1.0
224	0x3f800000	1.0
225	0x3f800000	1.0
226	0x3f800000	1.0
227	0x3f800000	1.0
228	0x3f800000	1.0
229	0x3f800000	1.0
230	0x3f800000	1.0
231	0x3f800000	1.0
232	0x3f800000	1.0
233	0x3f800000	1.0
234	0x3f800000	1.0
235	0x3f800000	1.0
236	0x3f800000	1.0
237	0x3f800000	1.0
238	0x3f800000	1.0
239	0x3f800000	1.0
240	0x3f800000	1.0
241	0x3f800000	1.0
242	0x3f800000	1.0
243	0x3f800000	1.0
244	0x3f800000	1.0
245	0x3f800000	1.0
246	0x3f800000	1.0
247	0x3f800000	1.0
248	0x3f800000	1.0
249	0x3f800000	1.0
250	0x3f800000	1.0
251	0x3f800000	1.0
252	0x3f800000	1.0
253	0x3f800000	1.0
254	0x3f800000	1.0
255	0x3f800000	1.0

module.fc2._layer.weight f4 [20, 40]
0	0x3e062c2b	0.13102786
1	0xbe923fc0	-0.28564262
2	0x3d5c4896	0.05378016
3	0x3a145267	0.0005658031
4	0x3cb41f2c	0.02198752
5	0xbe6606e5	-0.22463568
6	0xbcc8bf6b	-0.024505338
7	0xbcd4eec7	-0.025992764
8	0xbde8e0db	-0.11371013
9	0x3e33b5ea	0.17549863
10	0xbb81078a	-0.0039376663
11	0xbcbfc819	-0.023410844
12	0xbd435ac1	-0.04769397
13	0xbe3d0905	-0.18460472
14	0xbe431c03	-0.19053654
15	0xbd060dca	-0.032727994
16	0x3d832088	0.06402689
17	0xbde34ed8	-0.110990226
18	0xbdb05168	-0.08609277
19	0x3e6dee47	0.23235427
20	0x3d80482d	0.062637664
21	0xbe284ea3	-0.16436248
22	0x3d814078	0.063111246
23	0x3e2957b6	0.16537365
24	0xbcbe3fb0	-0.023223728
25	0x3c6b0be7	0.014346099
26	0x3e8fe0a6	0.2810108
27	0x3dc1af8c	0.09457311
28	0x3e96efa5	0.2947971
29	0xbde88a66	-0.113545224
30	0xbb16e68d	-0.0023025603
31	0x3e26e354	0.16297656
32	0x3deae21c	0.11468908
33	0xbe2129b7	-0.15738569
34	0x3d51713d	0.051133383
35	0xbb9fff80	-0.004882753
36	0x3d9889d4	0.07448164
37	0x3e02b251	0.12763335
38	0xbe1439ce	-0.14475176
39	0x3d61ed2e	0.055157833
40	0x3e4c71e2	0.19965318
41	0x3de7ebdb	0.11324283
42	0xbdb92a98	-0.09041327
43	0x3dafb597	0.085795574
44	0xbe2adf42	-0.16686729
45	0x3e304b08	0.17216122
46	0x3cf38024	0.029724188
47	0xbcbbff8f	-0.022949008
48	0xbd163cd7	-0.036679115
49	0xbe2a62c9	-0.16639246
50	0xbcba12d7	-0.022714062
51	0x3da8d587	0.08243852
52	0xbe69103b	-0.22760098
53	0x3d1d7a65	0.038446803
54	0xbe17fc6c	-0.14842385
55	0xbd335c97	-0.043789472
56	0xbe589eed	-0.21154375
57	0x3d2019e4	0.03908719
58	0x3ddccec3	0.10781624
59	0x3dfe24aa	0.12409337
60	0x3e66db87	0.2254468
61	0x3ca942fa	0.02066182
62	0xbe0eeed8	-0.13958299
63	0x3d06c225	0.032899994
64	0x3c965a60	0.018353641
65	0xbbecb6f4	-0.007223958
66	0xbe8cf031	-0.27527002
67	0x3da17ade	0.07884763
68	0x3d46d1aa	0.048539795
69	0x3e9a30b9	0.30115297
70	0xbe0aecc3	-0.1356688
71	0xbe15b4cf	-0.14619754
72	0x3c39fdb7	0.011351994
73	0x3d6f491c	0.058419332
74	0x3ddcbaca	0.10777815
75	0xbdc16597	-0.09443205
76	0x3cf87d04	0.03033305
77	0x3d762dd7	0.06010231
78	0xbdc55524	-0.0963538
79	0x3dc1f797	0.09471052
80	0xbe2726f4	-0.16323453
81	0xbe3aa074	-0.1822527
82	0xbe6a21ce	-0.22864458
83	0x3d98b818	0.07456988
84	0xbdf38730	-0.11891019
85	0xbe8f16b3	-0.27947006
86	0xbd2c887c	-0.04212235
87	0x3e3d2cab	0.1847407
88	0x3e82a245	0.25514427
89	0x3e2ee1ee	0.17078373
90	0xbe2a9b1c	-0.16660732
91	0xbe2bf54f	-0.16792797
92	0x3dc4f20e	0.09616481
93	0x3e452b7b	0.19254868
94	0xbbd985d3	-0.0066382675
95	0xbe597105	-0.2123452
96	0x3e4b15ff	0.1983261
97	0x3e85f394	0.26162398
98	0x3e2cfd60	0.1689353
99	0x3d9ace14	0.075588375
100	0x3e1eb932	0.15500334
101	0x3c2e0ed8	0.010623656
102	0x3e154d5f	0.14580296
103	0x3e59fd91	0.21288134
104	0xbe463d28	-0.19359267
105	0xbde577f9	-0.112045236
106	0x3cff1b48	0.031140938
107	0xbd07c35b	-0.03314529
108	0x3e41afa2	0.18914655
109	0x3e432841	0.19058324
110	0x3d418b7b	0.04725216
111	0xbcccd03e	-0.025001641
112	0xbbb3d617	-0.005488168
113	0x3e9a493e	0.30134004
114	0x3ea8f0d4	0.32996237
115	0x3e25bc08	0.1618501
116	0xbc74384f	-0.014906003
117	0x3dc3d7c9	0.09562642
118	0xbe4e9723	-0.20174842
119	0xbe0eae44	-0.13933665
120	0x3e66f2d8	0.22553575
121	0x3e930e96	0.28722066
122	0xbaed0bce	-0.0018085183
123	0xbe6f6d51	-0.23381545
124	0x3e1df062	0.1542373
125	0x3e089546	0.13338193
126	0x3d8f52fa	0.069982484
127	0x3e68acbc	0.22722143
128	0xbe615cf5	-0.22008117
129	0x3ddc93fe	0.10770415
130	0x3dcd8ab9	0.10036225
131	0xbd32e4ab	-0.043675106
132	0xbe0c569a	-0.13704911
133	0x3e013acf	0.1262009
134	0x3e30f7c2	0.17282012
135	0x3d1226f2	0.035681672
136	0x3daaa6d6	0.08332603
137	0xbdfe74bf	-0.12424611
138	0xbdfc1b29	-0.12309868
139	0x3d8fae32	0.07015647
140	0x3dbf3af1	0.09337414
141	0x3e744435	0.23854144
142	0x3d980bb1	0.07424105
143	0xbd657322	-0.056018002
144	0x3df2086e	0.11818014
145	0x3e2015ca	0.15633312
146	0x3e5d285f	0.21597432
147	0x3d360149	0.04443482
148	0xbe53db12	-0.20689037
149	0xbe32cfaa	-0.1746203
150	0xbe53c3b0	-0.20680118
151	0x3b1f2110	0.0024281181
152	0x3ceee60e	0.029162433
153	0xbc94372c	-0.018092714
154	0xbe82c3b0	-0.25539923
155	0x3de36f31	0.111051925
156	0x3e258407	0.16163646
157	0xbe5e5f92	-0.21716145
158	0x3ce74db3	0.028235292
159	0x3e450cfa	0.19243231
160	0x3cdac4cb	0.026705166
161	0xbddf8fe4	-0.10916117
162	0x3cc63107	0.0241933
163	0x3d865f52	0.0656115
164	0xbe1f66ff	-0.15566634
165	0xbd459902	-0.048241623
166	0x3dd9c040	0.10632372
167	0xbe3b53bf	-0.18293665
168	0x3df9b695	0.12193028
169	0x3e125ef7	0.14294039
170	0x3e0f291c	0.13980526
171	0x3d3413a7	0.043964054
172	0xbe09093d	-0.1338243
173	0x3df7ce88	0.120999396
174	0xbd8ecd5a	-0.069727615
175	0xbe2ce8a3	-0.16885619
176	0xbe0fa1f1	-0.1402662
177	0xbdfa404e	-0.122192964
178	0x3e2b3d7b	0.16722672
179	0x3e81ab64	0.25326073
180	0x3e0df5e6	0.13863334
181	0xbde6a2ce	-0.11261521
182	0x3d26cfa2	0.040725358
183	0x3dca8387	0.09888368
184	0x3e103068	0.14080966
185	0xbd92aca1	-0.071618326
186	0xbe3ee7a2	-0.18643048
187	0xbdf7e4c6	-0.12104182
188	0x3d56ea6e	0.052469663
189	0x3df21eb0	0.118222594
190	0x3bd2d616	0.0064342124
191	0x3d8311b9	0.06399865
192	0x3c74f77a	0.014951581
193	0x3d968fd3	0.07351651
194	0xbd75971f	-0.059958573
195	0xbe29574e	-0.1653721
196	0xbb7fd07d	-0.003903418
197	0x3e3f0e22	0.18657735
198	0xbe2d8848	-0.16946518
199	0xbe2d9229	-0.16950287
200	0x3d1bbf6d	0.038024355
201	0xbddf0ab4	-0.10890713
202	0xbe67892e	-0.22610924
203	0xbe3a79c9	-0.1821052
204	0xbd14ca67	-0.03632584
205	0xbe52ba26	-0.20578822
206	0x3e0436d3	0.12911539
207	0x3d7d46ca	0.061835088
208	0x3ce48669	0.027896123
209	0x3e56b573	0.20967655
210	0xbe7102fe	-0.23536298
211	0x3d2c31f4	0.042039827
212	0xbcb18d3a	-0.021673787
213	0x3e716ba7	0.23576222
214	0xbd0e0513	-0.034672808
215	0xbdcba12d	-0.09942851
216	0xbdbb8ee8	-0.091581166
217	0xbe03eee8	-0.12884104
218	0xbdd79bf8	-0.105277956
219	0x3e9826fc	0.29717243
220	0x3d968479	0.07349486
221	0x3e956162	0.2917586
222	0xbd1d0512	-0.038334914
223	0x3e88de00	0.26731873
224	0xbe2cbb9f	-0.16868447
225	0xbdea4193	-0.114382885
226	0x3ead0fe0	0.33801174
227	0xbdf29ecd	-0.11846695
228	0xbe2f06a5	-0.17092378
229	0x3c948867	0.018131448
230	0x3be4a780	0.0069779754
231	0x3e71c438	0.23610008
232	0x3dfc80c0	0.123292446
233	0x3cb6e1ae	0.02232441
234	0x3e8e28d7	0.27765533
235	0x3e951119	0.29114607
236	0xbe107a79	-0.1410922
237	0xbe717c44	-0.2358256
238	0xbe905f9f	-0.28197953
239	0x3d923fa7	0.07141047
240	0x3dfc860a	0.123302534
241	0x3d14d633	0.03633709
242	0x3dbdb8fd	0.09263799
243	0x3dc3f51a	0.09568234
244	0x3d87dade	0.066335425
245	0x3c77b56d	0.015118939
246	0x3e006f1e	0.12542388
247	0x3ce0dc79	0.02744888
248	0xbddf5ac3	-0.10905983
249	0xbd4682d8	-0.048464626
250	0x3e2e9552	0.17049149
251	0x3dc39fe1	0.09551979
252	0x3ca19868	0.019725993
253	0x3e871bdc	0.26388443
254	0x3e75dd30	0.24010158
255	0xbdb54315	-0.088506855

module.fc3._weight_mask f4 [10, 20]
0	0x3f800000	1.0
1	0x3f800000	1.0
2	0x3f800000	1.0
3	0x3f800000	1.0
4	0x3f800000	1.0
5	0x3f800000	1.0
6	0x3f800000	1.0
7	0x3f800000	1.0
8	0x3f800000	1.0
9	0x3f800000	1.0
10	0x3f800000	1.0
11	0x3f800000	1.0
12	0x3f800000	1.0
13	0x3f800000	1.0
14	0x3f800000	1.0
15	0x3f800000	1.0
16	0x3f800000	1.0
17	0x3f800000	1.0
18	0x3f800000	1.0
19	0x3f800000	1.0
20	0x3f800000	1.0
21	0x3f800000	1.0
22	0x3f800000	1.0
23	0x3f800000	1.0
24	0x3f800000	1.0
25	0x3f800000	1.0
26	0x3f800000	1.0
27	0x3f800000	1.0
28	0x3f800000	1.0
29	0x3f800000	1.0
30	0x3f800000	1.0
31	0x3f800000	1.0
32	0x3f800000	1.0
33	0x3f800000	1.0
34	0x3f800000	1.0
35	0x3f800000	1.0
36	0x3f800000	1.0
37	0x3f800000	1.0
38	0x3f800000	1.0
39	0x3f800000	1.0
40	0x3f800000	1.0
41	0x3f800000	1.0
42	0x3f800000	1.0
43	0x3f800000	1.0
44	0x3f800000	1.0
45	0x3f800000	1.0
46	0x3f800000	1.0
47	0x3f800000	1.0
48	0x3f800000	1.0
49	0x3f800000	1.0
50	0x3f800000	1.0
51	0x3f800000	1.0
52	0x3f800000	1.0
53	0x3f800000	1.0
54	0x3f800000	1.0
55	0x3f800000	1.0
56	0x3f800000	1.0
57	0x3f800000	1.0
58	0x3f800000	1.0
59	0x3f800000	1.0
60	0x3f800000	1.0
61	0x3f800000	1.0
62	0x3f800000	1.0
63	0x3f800000	1.0
64	0x3f800000	1.0
65	0x3f800000	1.0
66	0x3f800000	1.0
67	0x3f800000	1.0
68	0x3f800000	1.0
69	0x3f800000	1.0
70	0x3f800000	1.0
71	0x3f800000	1.0
72	0x3f800000	1.0
73	0x3f800000	1.0
74	0x3f800000	1.0
75	0x3f800000	1.0
76	0x3f800000	1.0
77	0x3f800000	1.0
78	0x3f800000	1.0
79	0x3f800000	1.0
80	0x3f800000	1.0
81	0x3f800000	1.0
82	0x3f800000	1.0
83	0x3f800000	1.0
84	0x3f800000	1.0
85	0x3f800000	1.0
86	0x3f800000	1.0
87	0x3f800000	1.0
88	0x3f800000	1.0
89	0x3f800000	1.0
90	0x3f800000	1.0
91	0x3f800000	1.0
92	0x3f800000	1.0
93	0x3f800000	1.0
94	0x3f800000	1.0
95	0x3f800000	1.0
96	0x3f800000	1.0
97	0x3f800000	1.0
98	0x3f800000	1.0
99	0x3f800000	1.0
100	0x3f800000	1.0
101	0x3f800000	1.0
102	0x3f800000	1.0
103	0x3f800000	1.0
104	0x3f800000	1.0
105	0x3f800000	1.0
106	0x3f800000	1.0
107	0x3f800000	1.0
108	0x3f800000	1.0
109	0x3f800000	1.0
110	0x3f800000	1.0
111	0x3f800000	1.0
112	0x3f800000	1.0
113	0x3f800000	1.0
114	0x3f800000	1.0
115	0x3f800000	1.0
116	0x3f800000	1.0
117	0x3f800000	1.0
118	0x3f800000	1.0
119	0x3f800000	1.0
120	0x3f800000	1.0
121	0x3f800000	1.0
122	0x3f800000	1.0
123	0x3f800000	1.0
124	0x3f800000	1.0
125	0x3f800000	1.0
126	0x3f800000	1.0
127	0x3f800000	1.0
128	0x3f800000	1.0
129	0x3f800000	1.0
130	0x3f800000	1.0
131	0x3f800000	1.0
132	0x3f800000	1.0
133	0x3f800000	1.0
134	0x3f800000	1.0
135	0x3f800000	1.0
136	0x3f800000	1.0
137	0x3f800000	1.0
138	0x3f800000	1.0
139	0x3f800000	1.0
140	0x3f800000	1.0
141	0x3f800000	1.0
142	0x3f800000	1.0
143	0x3f800000	1.0
144	0x3f800000	1.0
145	0x3f800000	1.0
146	0x3f800000	1.0
147	0x3f800000	1.0
148	0x3f800000	1.0
149	0x3f800000	1.0
150	0x3f800000	1.0
151	0x3f800000	1.0
152	0x3f800000	1.0
153	0x3f800000	1.0
154	0x3f800000	1.0
155	0x3f800000	1.0
156	0x3f800000	1.0
157	0x3f800000	1.0
158	0x3f800000	1.0
159	0x3f800000	1.0
160	0x3f800000	1.0
161	0x3f800000	1.0
162	0x3f800000	1.0
163	0x3f800000	1.0
164	0x3f800000	1.0
165	0x3f800000	1.0
166	0x3f800000	1.0
167	0x3f800000	1.0
168	0x3f800000	1.0
169	0x3f800000	1.0
170	0x3f800000	1.0
171	0x3f800000	1.0
172	0x3f800000	1.0
173	0x3f800000	1.0
174	0x3f800000	1.0
175	0x3f800000	1.0
176	0x3f800000	1.0
177	0x3f800000	1.0
178	0x3f800000	1.0
179	0x3f800000	1.0
180	0x3f800000	1.0
181	0x3f800000	1.0
182	0x3f800000	1.0
183	0x3f800000	1.0
184	0x3f800000	1.0
185	0x3f800000	1.0
186	0x3f800000	1.0
187	0x3f800000	1.0
188	0x3f800000	1.0
189	0x3f800000	1.0
190	0x3f800000	1.0
191	0x3f800000	1.0
192	0x3f800000	1.0
193	0x3f800000	1.0
194	0x3f800000	1.0
195	0x3f800000	1.0
196	0x3f800000	1.0
197	0x3f800000	1.0
198	0x3f800000	1.0
199	0x3f800000	1.0

module.fc3._layer.weight f4 [10, 20]
0	0xbe8f9468	-0.28042912
1	0x3e78f5f4	0.24312574
2	0x3eb2cac8	0.34920335
3	0xbe02a962	-0.12759927
4	0xbe78e792	-0.24307087
5	0xbdd245cb	-0.10267218
6	0xbd4af949	-0.049554143
7	0x3c8a6a66	0.016896438
8	0xbed53964	-0.41645348
9	0xbe692607	-0.22768413
10	0x3e2b9be1	0.16758682
11	0x3b68bcae	0.0035512852
12	0x3ef86128	0.48511624
13	0xbdb326b7	-0.08747619
14	0xbe8136d1	-0.25237134
15	0xbdc3ae94	-0.095547825
16	0xbe9d55dc	-0.30729568
17	0xbe81b907	-0.25336477
18	0xbe6b7fe9	-0.22998013
19	0x3edd148c	0.4317974
20	0x3e01cc19	0.12675513
21	0xbdc79133	-0.097444914
22	0xbe125ea5	-0.14293917
23	0x3e562b45	0.20914944
24	0xbd2d9f28	-0.04238811
25	0xbe3abc51	-0.182359
26	0xbde8de8a	-0.11370571
27	0xbe08f1d3	-0.13373499
28	0xbe00cb8a	-0.12577644
29	0x3e073f3a	0.13207713
30	0xbe237c1b	-0.15965311
31	0xbe4d508d	-0.20050259
32	0x3e157f0a	0.14599243
33	0x3e53ca94	0.20682746
34	0x3f12684e	0.57190406
35	0x3c976f6b	0.018485745
36	0xbdf82c0f	-0.121177785
37	0xbe6b1458	-0.2295698
38	0x3f02f9d3	0.5116245
39	0xbedf0aa9	-0.4356282
40	0xbe4f262c	-0.20229405
41	0xbdbaa5f7	-0.091136865
42	0x3e1a9f73	0.15099888
43	0x3e9f4c10	0.3111272
44	0xbc8cdeb2	-0.017196033
45	0x3ea87ced	0.3290781
46	0x3ee248a3	0.44196042
47	0xbd2ec070	-0.04266399
48	0xbe9a4ffb	-0.30139145
49	0x3f3060e6	0.68897855
50	0x3d0b96f2	0.0340795
51	0x3d1035b3	0.03520746
52	0xbe551de6	-0.20812187
53	0xbe1d6f67	-0.15374528
54	0xbebe5faf	-0.37182376
55	0x3e419362	0.18903878
56	0xbea799a1	-0.32734397
57	0x3eabc004	0.33544934
58	0xbdf2b68d	-0.11851225
59	0x3d3bd4af	0.045857128
60	0x3e76d3be	0.2410421
61	0xbe3ce291	-0.18445803
62	0xbe850000	-0.25976562
63	0xbdc64be5	-0.096824445
64	0xbe92e218	-0.2868812
65	0x3d649386	0.05580475
66	0x3c1b8aa1	0.009493501
67	0x3efcd122	0.49378306
68	0x3ecac299	0.3960159
69	0xbcf471d7	-0.02983944
70	0x3ef8c6c7	0.48589155
71	0x3c3a3e35	0.01136737
72	0xbd62587e	-0.055260174
73	0xbe50bfa8	-0.20385611
74	0x3e3dd615	0.18538697
75	0x3b89acc1	0.004201502
76	0xbef3e901	-0.47638705
77	0xbd2c58c5	-0.042076845
78	0xbeae6434	-0.34060824
79	0xbe2b0d69	-0.16704334
80	0x3d516897	0.051125135
81	0xbca04406	-0.019563686
82	0x3cbdb4f2	0.02315757
83	0xbe92a737	-0.286432
84	0xbd59eac7	-0.053202417
85	0xbee9f2ca	-0.45693046
86	0x3e4d63e1	0.20057632
87	0xbe099f8d	-0.1343977
88	0x3e8cf8c8	0.27533555
89	0xbe29e2aa	-0.16590372
90	0xbce8b1f5	-0.028405169
91	0x3e0e1cc2	0.13878158
92	0x3bdc3b20	0.0067209154
93	0x3e63bc07	0.22239695
94	0xbe3fdd93	-0.18736868
95	0xbe37980e	-0.17929098
96	0x3f1a0cd4	0.60175824
97	0x3d107a31	0.03527278
98	0xbdb85315	-0.09000222
99	0xbf29cd11	-0.6632853
100	0xbe5e13df	-0.21687268
101	0x3eb75187	0.35804388
102	0x3e381615	0.17977174
103	0xbe090757	-0.13381706
104	0x3efb4a92	0.4908033
105	0xbe338398	-0.17530668
106	0x3cb9ed43	0.022696143
107	0xbe80a1d6	-0.2512347
108	0x3e61cb1e	0.2205014
109	0xbe98187e	-0.29706186
110	0xbd1d4ac1	-0.03840137
111	0xbd29ef93	-0.04148824
112	0xbe0fe178	-0.14050853
113	0xbdf56640	-0.11982393
114	0x3e94d79c	0.29070747
115	0x3e495da6	0.1966463
116	0xbe9b659f	-0.30350968
117	0xbd8b1938	-0.067919195
118	0xbdf938ec	-0.1216906
119	0x3ede659d	0.434369
120	0xbe8b7dd6	-0.27244443
121	0x3d8d452e	0.068979606
122	0xbefec2a4	-0.49757874
123	0x3e98329a	0.29726106
124	0xbe721f12	-0.23644665
125	0xbdd18045	-0.102295436
126	0xbe07fbff	-0.13279723
127	0xbef5c28e	-0.47999996
128	0xbd9ce93b	-0.07661673
129	0xbcbcd525	-0.023050854
130	0x3ec5259a	0.3850525
131	0xbe57e9db	-0.21085303
132	0x3e79e02b	0.2440192
133	0x3d755248	0.059892923
134	0xbe1dc366	-0.1540657
135	0x3e46f629	0.1942984
136	0x3efd3f47	0.4946234
137	0xbe1e6757	-0.15469109
138	0xbe024277	-0.12720667
139	0x3dd5722f	0.104221694
140	0x3e493d4a	0.19652286
141	0x3e87d69e	0.26530927
142	0x3eb9ff04	0.36327374
143	0x3ec62fcf	0.3870835
144	0xbcf0e26b	-0.02940484
145	0x3f259e1d	0.64694387
146	0xbe96e01a	-0.2946785
147	0xbc62e2d8	-0.013848029
148	0x3eacc43e	0.3374347
149	0x3e2a7ca2	0.16649106
150	0xbe9c0f0e	-0.30480236
151	0xbb55f026	-0.003264436
152	0x3e84a06f	0.2590365
153	0x3e0d9744	0.13827235
154	0xbec3ca7f	-0.3824043
155	0xbdb91b67	-0.0903843
156	0xbe99c054	-0.30029547
157	0xbe0ef000	-0.1395874
158	0xbda36482	-0.07978155
159	0xbf15eef8	-0.5856776
160	0x3e457e06	0.19286355
161	0x3ea8c3bd	0.32961836
162	0xbec1c0ae	-0.37842315
163	0xbe4cd36c	-0.20002526
164	0x3de2db51	0.110769875
165	0xbe522d36	-0.20525059
166	0xbd127d99	-0.03576431
167	0x3e93a01c	0.2883309
168	0x3dd58bed	0.10427079
169	0x3e8e16b0	0.27751684
170	0xbf0a6093	-0.5405361
171	0x3dee629c	0.11639902
172	0x3d74b207	0.059740093
173	0x3e3e3ae0	0.18577147
174	0xbe3e7526	-0.18599376
175	0x3d3ac028	0.04559341
176	0x3d9f72dd	0.0778558
177	0xbe45fcbe	-0.19334695
178	0xbd0578a8	-0.03258577
179	0x3e806626	0.25077933
180	0x3ecde3e6	0.40212935
181	0xbed9e4ba	-0.42557317
182	0x3eb1f0ff	0.34754178
183	0xbed65951	-0.41865018
184	0xbdf644ff	-0.12024879
185	0x3ea720a9	0.32642105
186	0xbdec7703	-0.11546137
187	0x3e6a83a3	0.22901778
188	0xbea1cb60	-0.31600475
189	0xbedcc354	-0.43117774
190	0xbe97b178	-0.29627585
191	0xbdc55a26	-0.09636335
192	0xbd64e4fc	-0.05588244
193	0xbd367613	-0.044546198
194	0x3e87debe	0.26537126
195	0xbe4c4d87	-0.1995145
196	0x3e923f80	0.28564072
197	0xbe6f6c93	-0.23381262
198	0xbdc6abbd	-0.09700725
199	0xbe3b16ec	-0.18270463

momentum_buffer f4 [40, 784]
0	0x3c09fc64	0.008421991
1	0x3c09fc64	0.008421991
2	0x3c09fc64	0.008421991
3	0x3c09fc64	0.008421991
4	0x3c09fc64	0.008421991
5	0x3c09fc64	0.008421991
6	0x3c09fc64	0.008421991
7	0x3c09fc64	0.008421991
8	0x3c09fc64	0.008421991
9	0x3c09fc64	0.008421991
10	0x3c09fc64	0.008421991
11	0x3c09fc64	0.008421991
12	0x3c09fc64	0.008421991
13	0x3c09fc64	0.008421991
14	0x3c09fc64	0.008421991
15	0x3c09fc64	0.008421991
16	0x3c09fc64	0.008421991
17	0x3c09fc64	0.008421991
18	0x3c09fc64	0.008421991
19	0x3c09fc64	0.008421991
20	0x3c09fc64	0.008421991
21	0x3c09fc64	0.008421991
22	0x3c09fc64	0.008421991
23	0x3c09fc64	0.008421991
24	0x3c09fc64	0.008421991
25	0x3c09fc64	0.008421991
26	0x3c09fc64	0.008421991
27	0x3c09fc64	0.008421991
28	0x3c09fc64	0.008421991
29	0x3c09fc64	0.008421991
30	0x3c09fc64	0.008421991
31	0x3c09fc64	0.008421991
32	0x3c09fc64	0.008421991
33	0x3c09fc64	0.008421991
34	0x3c09fc64	0.008421991
35	0x3c09fc64	0.008421991
36	0x3c09fc64	0.008421991
37	0x3c09fc64	0.008421991
38	0x3c09fc64	0.008421991
39	0x3c09fc64	0.008421991
40	0x3c09fc64	0.008421991
41	0x3c09fc64	0.008421991
42	0x3c09fc64	0.008421991
43	0x3c09fc64	0.008421991
44	0x3c09fc64	0.008421991
45	0x3c09fc64	0.008421991
46	0x3c09fc64	0.008421991
47	0x3c09fc64	0.008421991
48	0x3c09fc64	0.008421991
49	0x3c09fc64	0.008421991
50	0x3c09fc64	0.008421991
51	0x3c09fc64	0.008421991
52	0x3c09fc64	0.008421991
53	0x3c09fc64	0.008421991
54	0x3c09fc64	0.008421991
55	0x3c09fc64	0.008421991
56	0x3c09fc64	0.008421991
57	0x3c09fc64	0.008421991
58	0x3c09fc64	0.008421991
59	0x3c09fc64	0.008421991
60	0x3c09fc64	0.008421991
61	0x3c09fc64	0.008421991
62	0x3c09fc64	0.008421991
63	0x3c09fc64	0.008421991
64	0x3c09fc64	0.008421991
65	0x3c09fba4	0.008421812
66	0x3c09edbe	0.008418499
67	0x3c09cdd9	0.008410894
68	0x3c09c29c	0.008408215
69	0x3c09a0e8	0.008400179
70	0x3c09cb47	0.0084102815
71	0x3c09cd14	0.008410711
72	0x3c09dc36	0.008414319
73	0x3c09fd95	0.008422275
74	0x3c0a2710	0.008432165
75	0x3c0a03d1	0.008423761
76	0x3c09fc64	0.008421991
77	0x3c09fc64	0.008421991
78	0x3c09fc64	0.008421991
79	0x3c09fc64	0.008421991
80	0x3c09fc64	0.008421991
81	0x3c09fc64	0.008421991
82	0x3c09fc64	0.008421991
83	0x3c09fc64	0.008421991
84	0x3c09fc64	0.008421991
85	0x3c09fc64	0.008421991
86	0x3c09fc60	0.008421987
87	0x3c09fc63	0.00842199
88	0x3c09fc64	0.008421991
89	0x3c09fc64	0.008421991
90	0x3c09fc64	0.008421991
91	0x3c0a0c2e	0.008425755
92	0x3c0a43de	0.008439032
93	0x3c09308a	0.008373389
94	0x3c0c96a2	0.008580836
95	0x3c085542	0.008321108
96	0x3c046f0d	0.008083117
97	0x3c0396a5	0.008031522
98	0x3c06ce4a	0.008227894
99	0x3c0b8e54	0.00851782
100	0x3c0e18e1	0.008672924
101	0x3c0c2629	0.00855402
102	0x3c09d12e	0.008411689
103	0x3c09361e	0.008374719
104	0x3c094290	0.008377686
105	0x3c09703e	0.008388577
106	0x3c096fe5	0.008388494
107	0x3c09b2f6	0.008404484
108	0x3c09e6a2	0.008416804
109	0x3c09fc64	0.008421991
110	0x3c09fc64	0.008421991
111	0x3c09fc64	0.008421991
112	0x3c09fc64	0.008421991
113	0x3c09fc64	0.008421991
114	0x3c09fc58	0.00842198
115	0x3c09fc61	0.008421988
116	0x3c09fc64	0.008421991
117	0x3c09fc64	0.008421991
118	0x3c0a12a9	0.0084273005
119	0x3c0ac47b	0.008469696
120	0x3c0c2a84	0.008555058
121	0x3c0b5c58	0.008505903
122	0x3bbf102a	0.0058307843
123	0xbc7624f7	-0.015023462
124	0xbbe9cfb3	-0.0071353554
125	0x3c3a5852	0.011373596
126	0x3bfb6399	0.007671785
127	0xbba3707a	-0.0049877735
128	0xbb97a231	-0.004627489
129	0x3b99d800	0.0046949387
130	0x3c557121	0.01302746
131	0x3c5f2a91	0.0136209885
132	0x3c0b5a8a	0.008505473
133	0x3c106d80	0.008815169
134	0x3c1396ee	0.009008152
135	0x3c118cc4	0.008883659
136	0x3c08f416	0.008358976
137	0x3c0884b4	0.00833242
138	0x3c09512a	0.008381167
139	0x3c09fc64	0.008421991
140	0x3c09fc64	0.008421991
141	0x3c09fc64	0.008421991
142	0x3c09fc62	0.008421989
143	0x3c09ff84	0.008422736
144	0x3c0a0600	0.008424282
145	0x3c09f262	0.008419605
146	0x3c121ca5	0.008917962
147	0x3c2ba766	0.010476923
148	0x3c32810f	0.010895028
149	0x3a974795	0.0011541719
150	0xbcb52b73	-0.022115445
151	0xbce4cc99	-0.027929591
152	0xbcb8d608	-0.022562996
153	0xbc678de4	-0.01413295
154	0xbc99d0ee	-0.018776383
155	0xbcb68dd7	-0.022284431
156	0xbb873654	-0.0041263495
157	0x3c1d7172	0.009609567
158	0x3c65260b	0.013986121
159	0x3c0c63d4	0.008568723
160	0x3c04fcf2	0.0081169475
161	0x3c0eef5d	0.008724061
162	0x3c0472ce	0.008084012
163	0x3c00c6bd	0.007859883
164	0x3c0ce71f	0.008600025
165	0x3c0fd0fb	0.008777852
166	0x3c0dced4	0.008655269
167	0x3c09fc64	0.008421991
168	0x3c09fc64	0.008421991
169	0x3c09fc64	0.008421991
170	0x3c09f398	0.008419894
171	0x3c09f5ba	0.008420402
172	0x3c0a0284	0.008423451
173	0x3c104ed0	0.008807853
174	0x3c2e55b9	0.010640555
175	0x3c4a9372	0.012364255
176	0x3b6b1d3f	0.0035875586
177	0xbc6be594	-0.014397997
178	0xbca6ba92	-0.020352636
179	0xbc9c666e	-0.019091811
180	0xbc94cbb2	-0.018163536
181	0xbca885ba	-0.020571578
182	0xbc30cd02	-0.010791065
183	0xbc612346	-0.01374132
184	0xbd27687e	-0.040871136
185	0xbc9d2fe2	-0.019187871
186	0x3c4e788b	0.012601982
187	0x3b8a7742	0.0042256424
188	0x3bef7608	0.0073077716
189	0x3c204fb9	0.009784632
190	0x3c0485ce	0.008088542
191	0x3bdf2d78	0.00681084
192	0x3c3d9493	0.011571067
193	0x3c47bfff	0.0121917715
194	0x3c3eaef8	0.0116383955
195	0x3c09fc64	0.008421991
196	0x3c09fc64	0.008421991
197	0x3c09fc64	0.008421991
198	0x3c09f04c	0.008419108
199	0x3c09f48c	0.008420121
200	0x3c133f85	0.008987312
201	0x3c165606	0.009175783
202	0x3c23accd	0.009989929
203	0x3c2513dc	0.010075536
204	0xbc5fca02	-0.013659002
205	0xbc7c15ef	-0.015386089
206	0xbc5c176a	-0.013433317
207	0xbbfc7260	-0.0077040642
208	0xbcc1979d	-0.023631865
209	0xbc1c2490	-0.009530202
210	0x3c454bd6	0.0120420065
211	0xbcc83fa3	-0.024444407
212	0xbd563f21	-0.0523063
213	0xbd11fcfb	-0.03564165
214	0x3c118536	0.008881858
215	0x3c0791e3	0.008274528
216	0x3c06a822	0.008218797
217	0x3c1ac4cd	0.009446335
218	0x3c046602	0.008080961
219	0x3c324e95	0.010882993
220	0x3c4d5ba8	0.01253406
221	0x3c481d8d	0.012214077
222	0x3c1d1554	0.009587605
223	0x3c09fc64	0.008421991
224	0x3c09fc64	0.008421991
225	0x3c09fbd5	0.008421858
226	0x3c09f774	0.008420814
227	0x3c09ec80	0.008418202
228	0x3c19cdcb	0.009387444
229	0x3c0a4f84	0.00844181
230	0x3bc974de	0.006147965
231	0xbc591bd8	-0.013251267
232	0xbc8bfe67	-0.017089082
233	0xbc5a735b	-0.013333167
234	0x3ab829b0	0.001405051
235	0x3b3c3fe1	0.0028724598
236	0xbbf03cac	-0.0073314514
237	0x3b765c72	0.0037591723
238	0xbb5c33c4	-0.003360019
239	0xbd05cfd4	-0.032668903
240	0xbd65bcff	-0.056088444
241	0xbd336cdd	-0.043804992
242	0xbc4e1423	-0.012578043
243	0xbc7a499b	-0.015276338
244	0xbc619584	-0.013768557
245	0xbc213cf6	-0.009841194
246	0x3c081a4d	0.008307052
247	0x3c2964aa	0.010338942
248	0x3c337868	0.010954
249	0x3c19de0b	0.009391318
250	0x3c0ac206	0.00846911
251	0x3c09fc64	0.008421991
252	0x3c09fc64	0.008421991
253	0x3c09f983	0.008421305
254	0x3c09f780	0.008420825
255	0x3c09cf5a	0.008411253

momentum_buffer f4 [20, 40]
0	0xbc595593	-0.013265031
1	0x3a4e9470	0.0007880395
2	0xbbfbd320	-0.00768508
3	0xbd8f999a	-0.07011719
4	0xbd09bc73	-0.033626985
5	0xbd1961a9	-0.03744665
6	0xbbe3f4c2	-0.0069566676
7	0xbc4f26aa	-0.012643496
8	0xbb936548	-0.0044981577
9	0x3c9e8f24	0.019355364
10	0xbd5341e9	-0.05157653
11	0xbbfb26f9	-0.007664558
12	0xbc8912d6	-0.016732614
13	0xbb472292	-0.0030385596
14	0xbca30c03	-0.019903189
15	0xbc089b81	-0.008337856
16	0xba6d6ab4	-0.00090567325
17	0xbcd437bc	-0.025905482
18	0xbd0502fc	-0.03247355
19	0xbca42f2c	-0.020042025
20	0xbc198877	-0.009370915
21	0x3a54b79b	0.00081145175
22	0xbce923e3	-0.028459495
23	0xbd901902	-0.0703602
24	0xbcbbfa86	-0.022946607
25	0xbd5e9c7c	-0.054348454
26	0xbd34ca0c	-0.044138
27	0xbca73ef4	-0.02041576
28	0xbd89f652	-0.06736435
29	0xbd4f2566	-0.050572775
30	0xbbe06c08	-0.006848816
31	0xbbf3638e	-0.0074276393
32	0xbd08850d	-0.033330012
33	0xbcc08892	-0.023502622
34	0xbdac306a	-0.08407672
35	0xbbfb69ea	-0.007672538
36	0xbb16c6a0	-0.0023006573
37	0xbd599366	-0.053119086
38	0xbb115a9c	-0.0022179252
39	0xbd4f9126	-0.050675534
40	0xbc2e1300	-0.010624647
41	0xbb4713c4	-0.0030376771
42	0xbd3b41bc	-0.045716986
43	0x3d50eafa	0.05100534
44	0x3baa2aea	0.005193104
45	0xbcdc2906	-0.02687503
46	0x3ba59891	0.0050535877
47	0xbbbfb5d2	-0.005850532
48	0xbc87aa5b	-0.016560724
49	0xbdb4015f	-0.08789324
50	0x3bca1b18	0.0061677806
51	0xbcb2ccac	-0.02182611
52	0x3cd942c0	0.026521087
53	0x3c1d1a62	0.00958881
54	0xbc92d62e	-0.017924394
55	0x3c20c26f	0.009811982
56	0xbd862ea4	-0.06551865
57	0x3d100d47	0.035168912
58	0x3ced6530	0.028978914
59	0xbd9fce00	-0.07802963
60	0xbca63c77	-0.020292504
61	0x3b7f5bfb	0.0038964737
62	0xbca95780	-0.020671606
63	0x3c98e889	0.018665569
64	0xbd31b51e	-0.043385617
65	0xbb8627c4	-0.004094096
66	0xbd895ff0	-0.06707752
67	0xbbf3accc	-0.0074363705
68	0x3cadbab2	0.021207187
69	0x3c440c49	0.01196582
70	0xbbdabc65	-0.0066752904
71	0x3a713720	0.00092016347
72	0xbc1a0fd0	-0.009403184
73	0x3c50abf7	0.012736312
74	0x3c96aeb4	0.018393852
75	0xbb99246a	-0.0046735303
76	0xbbe7fd1c	-0.0070797335
77	0x3ca20f1e	0.019782599
78	0x3b4f39eb	0.0031620215
79	0xbd8d982c	-0.0691379
80	0x3b82a80c	0.003987318
81	0xbcc31108	-0.023811832
82	0x3d8fe3fd	0.07025907
83	0x3e14d8d6	0.14535841
84	0x3c7e9854	0.015539248
85	0x3e594328	0.21217024
86	0x3c90c5ec	0.017672502
87	0x3cc16fff	0.023612974
88	0x3da4eb10	0.08052647
89	0x3d0a9594	0.033834055
90	0x3dc4a0b5	0.09600965
91	0x3dac370e	0.08408938
92	0x3b0a02a8	0.0021058712
93	0xbb7fc9b2	-0.0039030132
94	0x3d652c10	0.055950224
95	0xbbb9de4b	-0.0056722513
96	0x3c832edd	0.016013557
97	0x3d7d9f28	0.06191936
98	0x3d3eca79	0.04657981
99	0x3d2e6c8c	0.042583987
100	0xbd2423cd	-0.040073205
101	0xbbadc4cf	-0.0053030024
102	0x3dc52516	0.09626214
103	0xbd1cbf60	-0.038268447
104	0x3de2a353	0.11066308
105	0x3dcd8840	0.10035753
106	0xbb33ba80	-0.0027424395
107	0x3ca92de4	0.020651765
108	0x3d6a2f04	0.057173744
109	0x3db3afca	0.087737635
110	0xbd35ea40	-0.04441285
111	0xbbb6df50	-0.00558082
112	0x3cbde3fe	0.023180004
113	0xbd51e9af	-0.05124825
114	0x3e14c902	0.14529803
115	0xbb9aa70e	-0.0047196215
116	0x3ce2bc2c	0.027677618
117	0x3c27b978	0.01023709
118	0x3d157809	0.036491428
119	0x3d77ad36	0.06046792
120	0xbc85ab24	-0.016316958
121	0xbd514757	-0.051093426
122	0xbcfb2d2f	-0.030661194
123	0x3c5775ab	0.013150613
124	0xbb1beb64	-0.0023791427
125	0xbc3af5e0	-0.01141116
126	0xbc566be5	-0.0130872475
127	0xbd0c97e9	-0.03432456
128	0xbba518f4	-0.005038375
129	0xbd963625	-0.07334546
130	0xbd216cfe	-0.039410584
131	0xbbf31bb4	-0.007419074
132	0xbc8045c2	-0.015658263
133	0xbc0ea3ec	-0.008706074
134	0xbd1ebaec	-0.03875248
135	0xbbd08a86	-0.0063641695
136	0xbd474f28	-0.048659474
137	0xbbd4320b	-0.006475692
138	0xbd9b83e0	-0.075935125
139	0xbdea4919	-0.114397235
140	0xbd6bb02d	-0.05754106
141	0xbb5187fc	-0.0031971922
142	0x3b63e438	0.003477348
143	0xbdc997e6	-0.098434255
144	0xbcf3f490	-0.029779702
145	0xbcfb7df2	-0.030699704
146	0xbd8cf11b	-0.06881925
147	0x3b5a6f3e	0.0033330466
148	0xbd891b12	-0.066946164
149	0xbd7da1ce	-0.061921887
150	0xbd147a37	-0.036249366
151	0xbc02be33	-0.007979917
152	0xbd5b4894	-0.053536013
153	0xbd3cd458	-0.046100944
154	0xbd936939	-0.07197804
155	0xbc443938	-0.011976533
156	0xbca5ef34	-0.020255663
157	0xbd72b88c	-0.05925803
158	0xbd0c2f69	-0.0342249
159	0xbd4cf266	-0.050035857
160	0xbb94c5a5	-0.0045401626
161	0x3c35ea04	0.011103157
162	0x3d17aac4	0.03702809
163	0x3de3b78d	0.11118994
164	0x3cb5ab83	0.02217651
165	0x3de1f387	0.11032777
166	0x3c3518d4	0.011053283
167	0x3c99863f	0.018740771
168	0x3cb44ce2	0.022009317
169	0x3c3fb988	0.011701949
170	0x3da6ed06	0.081506774
171	0x3d04de65	0.032438654
172	0x3d1debbc	0.038554892
173	0x3b9e42da	0.0048297467
174	0x3d678b90	0.05652958
175	0x3b97cbc5	0.0046324455
176	0xbba10bc9	-0.004914735
177	0x3d74db7f	0.05977964
178	0x3dae705f	0.08517527
179	0x3d12698e	0.035745196
180	0x3abe3e0c	0.0014514341
181	0xbb24141e	-0.0025036405
182	0x3cd615ed	0.026133502
183	0x3c6f99a0	0.014624029
184	0x3d4ad364	0.049518004
185	0x3da70c18	0.081566036
186	0x3986b7c0	0.00025695376
187	0xb7bebc00	-2.273731e-05
188	0x3dce6c5c	0.10079262
189	0x3da6c848	0.08143669
190	0x3c00a5fa	0.007852072
191	0xbb931d76	-0.004489596
192	0x3cf5c5e0	0.03000158
193	0x3c26ef34	0.010188866
194	0x3ddcbc77	0.10778134
195	0xbb9eadc3	-0.0048424914
196	0x3d04704c	0.032333657
197	0x3cd303a2	0.025758568
198	0x3d5c0fdd	0.053726066
199	0x3cb8cc5f	0.02255839
200	0xbc96fa10	-0.018429786
201	0xbd836d35	-0.06417314
202	0xbc0e89f1	-0.00869988
203	0xbd3d0a67	-0.0461525
204	0xbd087040	-0.033310175
205	0x3c0c3f4e	0.008560015
206	0xbcc27518	-0.023737475
207	0xbd3d6c75	-0.04624601
208	0x3cb876f0	0.022517651
209	0xbcdcd87e	-0.0269587
210	0xbd959bd1	-0.0730511
211	0x3c2b4019	0.010452294
212	0xbd4c1aec	-0.049830362
213	0xbbd66f38	-0.00654402
214	0xbd2e5e63	-0.042570483
215	0xbc1d0b00	-0.009585142
216	0xbcaae284	-0.020859964
217	0xbcb78dac	-0.022406422
218	0xbdf079b2	-0.117419615
219	0xbdf22c32	-0.11824836
220	0xbd91601c	-0.070984095
221	0xbae27196	-0.0017276283
222	0x3bebc5d6	0.0071952147
223	0xbe3d655b	-0.18495695
224	0xbc886b4b	-0.016652724
225	0xbd79700e	-0.06089788
226	0xbdbf337c	-0.09335992
227	0xbbfc5e67	-0.0077016833
228	0xbe20a3a4	-0.15687424
229	0xbdd4fd27	-0.103998475
230	0xbd80ff9e	-0.06298755
231	0xbc158d12	-0.009127872
232	0xbdabe725	-0.08393697
233	0xbdc55391	-0.0963508
234	0xbe0d7600	-0.13814545
235	0xbbb61003	-0.005556108
236	0xbc69b844	-0.014265124
237	0xbde8ebef	-0.11373126
238	0xbd1008fc	-0.03516482
239	0xbd93eca7	-0.07222872
240	0x3b35ed24	0.0027759755
241	0x3c11de5e	0.008903114
242	0x3ce79d84	0.028273351
243	0x3d4373e2	0.047717936
244	0x3cce4f6f	0.025184361
245	0x3cb5afae	0.022178497
246	0x3a9b21a0	0.0011835583
247	0x3cbb4e64	0.022864528
248	0x3abface0	0.0014623664
249	0x3c8ec582	0.017428163
250	0x3d1c8618	0.03821382
251	0x3afaf438	0.0019146269
252	0x3cce0236	0.025147539
253	0xbb9f112e	-0.004854343
254	0x3cc4a241	0.02400315
255	0x3b1d3d2b	0.0023992758
